Assets/Resources/ModeloIA/modelo_multioutput.onnx (onnx, 15556 bytes, 6 tensors)

StatefulPartitionedCall/sequential_1/dense_2_1/Cast/ReadVariableOp:0 f4 [32, 10]
0	0x3e0597b9	0.13046159
1	0x3e5f6d3c	0.21819013
2	0x3ac40146	0.0014953993
3	0x3e30bf53	0.17260484
4	0xbf0279a7	-0.50966877
5	0xbdb73ff3	-0.08947744
6	0x3eefb799	0.4681976
7	0x3e2b8b94	0.16752464
8	0x3e3fb67e	0.18721959
9	0xbd0c2795	-0.034217436
10	0xbe3d6e68	-0.18499148
11	0xbd72b349	-0.05925301
12	0xbef526ea	-0.47881252
13	0x3e8eaf36	0.2786805
14	0x3ed8dc61	0.42355636
15	0xbee27096	-0.4422652
16	0x3eaf27b3	0.34209976
17	0xbcaeb788	-0.021327749
18	0x3e2f3948	0.17111695
19	0x3da43f73	0.080199145
20	0x3e6d112e	0.23151085
21	0x3e20a692	0.15688542
22	0x3dacd04e	0.084381685
23	0xbdf5164e	-0.11967145
24	0x3ea40717	0.3203666
25	0x3e5e22f0	0.21693015
26	0x3e8ddca1	0.2770739
27	0xbe323790	-0.17404008
28	0xbd31b9a0	-0.043389916
29	0x3ecceb5f	0.40023324
30	0x3e8a7d7c	0.27048862
31	0x3df0334d	0.11728535
32	0xbeab3667	-0.33439943
33	0x3e836e52	0.25670105
34	0x3eb1dab1	0.3473716
35	0xbdd25d78	-0.10271734
36	0xbd9949de	-0.07484792
37	0x3ea0918a	0.31361037
38	0x3d82865b	0.063732825
39	0xbeb185e8	-0.34672475
40	0x3ec81f8c	0.39086568
41	0x3e866c9b	0.26254734
42	0x3dd81b81	0.10552121
43	0xbe891fa0	-0.2678194
44	0x3e8ceb09	0.27523068
45	0x3e43ac43	0.19108681
46	0xbe49b1db	-0.19696753
47	0x3dcddbab	0.10051664
48	0x3dc43760	0.095808744
49	0x3d69c1d0	0.0570696
50	0xbebd9bf6	-0.3703305
51	0x3d6b0842	0.057380922
52	0x3e1cc7d0	0.15310597
53	0x3f0ee1e7	0.5581345
54	0xbe4fe475	-0.20301993
55	0xbdf13121	-0.11776949
56	0xbdf5d1d0	-0.12002909
57	0x3e45633b	0.19276135
58	0xbe4ee484	-0.2020436
59	0x3e4e17d2	0.20126274
60	0xbd62ba2d	-0.055353332
61	0x3e86036b	0.26174483
62	0x3e0a9836	0.13534626
63	0xbec65309	-0.38735226
64	0xbe5521bc	-0.2081365
65	0xbe842a01	-0.25813296
66	0xbeaab30c	-0.33339727
67	0xbe75d15d	-0.24005647
68	0x3c88dbfe	0.016706463
69	0xbb8da397	-0.00432248
70	0x3db0a860	0.08625865
71	0x3e51fa84	0.2050572
72	0x3ebda17a	0.3703726
73	0x3dc1d23f	0.094639294
74	0xbe19d5cb	-0.15022962
75	0x3e65c438	0.22438133
76	0xbe8373e6	-0.2567436
77	0x3df68696	0.12037389
78	0x3e3caedd	0.1842608
79	0x3d9bbac5	0.07603983
80	0xbd1a78f5	-0.03771301
81	0x3e630847	0.22171126
82	0x3e29ff33	0.16601257
83	0xbd949c83	-0.07256415
84	0x3e41ff07	0.18944941
85	0x3d74f63b	0.059805136
86	0x3e9f00f7	0.31055424
87	0x3e69e186	0.22839937
88	0xbd9f271d	-0.07771132
89	0x3f01d03c	0.50708365
90	0xbeae3ca0	-0.34030628
91	0xbe70b953	-0.23508196
92	0x3e93de8d	0.2888073
93	0x3d840e47	0.06448036
94	0xbda84cc0	-0.08217764
95	0x3ebdf6c1	0.3710232
96	0x3e64b0b6	0.22333035
97	0xbde9725a	-0.11398764
98	0x3e2b3897	0.16720806
99	0xbe106eef	-0.14104818
100	0x3d109252	0.035295792
101	0x3e53e7cb	0.20693891
102	0x3d27128a	0.040789165
103	0xbdf5d26c	-0.120030254
104	0xbe95557f	-0.2916679
105	0x3db5dfbb	0.08880564
106	0x3cbcf5e1	0.023066463
107	0x3e982e51	0.29722837
108	0xbdc9b3b2	-0.09848727
109	0x3dc2bac4	0.09508279
110	0x3e1fb972	0.15598086
111	0xbeb343cb	-0.3501266
112	0x3ea2c82e	0.3179335
113	0xbe282c4b	-0.16423146
114	0xbd0cc099	-0.034363363
115	0xbd4e106a	-0.050308622
116	0x3ea642be	0.32472795
117	0xbe5ced9d	-0.21575017
118	0xbeb12bbb	-0.34603676
119	0x3e1e295c	0.15445465
120	0xbd2c5b56	-0.042079292
121	0xbc99b8e4	-0.01876492
122	0xbe9506b1	-0.29106668
123	0x3dd6fbe8	0.10497266
124	0xbe170731	-0.14748837
125	0xbd87a502	-0.066232696
126	0x3d6370a6	0.05552735
127	0x3e8d52f4	0.2760235
128	0xbe31a06d	-0.17346354
129	0x3e9db245	0.3080007
130	0x3e3afe7d	0.18261142
131	0xbdab4697	-0.08363073
132	0xbe73ab97	-0.23795925
133	0xbd9684b0	-0.07349527
134	0xbdb90073	-0.09033289
135	0xbed9c764	-0.42534935
136	0xbeb69952	-0.3566385
137	0x3e0bfbd4	0.13670284
138	0xbf0b46d0	-0.54404926
139	0xbda5efb2	-0.08102359
140	0x3e28d26e	0.16486523
141	0xbe4d6623	-0.20058493
142	0x3e0f3fc7	0.13989173
143	0xbe6e7296	-0.23285899
144	0x3d8be612	0.06830992
145	0x3eab2cf1	0.33432725
146	0x3d40865f	0.047003146
147	0x3d759d98	0.059964746
148	0xbde36f31	-0.111051925
149	0xbd11340d	-0.03545003
150	0xbedbda84	-0.42940152
151	0xbef0340c	-0.4691471
152	0xbd8017d8	-0.06254548
153	0xbe54c758	-0.20779169
154	0xbcdf930f	-0.027291803
155	0xbe33ee0b	-0.17571275
156	0x3dbf984d	0.09355221
157	0x3e581e55	0.21105321
158	0x3eb624df	0.35575005
159	0x3c3cd1ae	0.011524601
160	0x3e7dc989	0.24783911
161	0xbe2a9bfe	-0.16661069
162	0x3dfb7d48	0.12279755
163	0xbe3874eb	-0.1801335
164	0x3e855532	0.2604156
165	0xbe1ae732	-0.15127257
166	0xbe4952e2	-0.19660524
167	0x3e9a421d	0.30128565
168	0x3e97b1a4	0.29627717
169	0x3e5518b7	0.20810209
170	0x3d80f20d	0.062961675
171	0xbdbe00ef	-0.09277522
172	0xbe35fa29	-0.1777121
173	0xbe71c680	-0.23610878
174	0xbe247b3c	-0.16062635
175	0x3e24f9ed	0.16110964
176	0x3ec788d7	0.38971588
177	0x3e071666	0.13192138
178	0xbeb05574	-0.34440196
179	0xbf033c60	-0.51264
180	0x3e664919	0.22488822
181	0x3e56d0fa	0.20978156
182	0xbe8100f0	-0.25196028
183	0x3e0343a1	0.12818767
184	0xbe4cbe60	-0.19994497
185	0x3e0599bb	0.13046925
186	0x3ea9fbf3	0.33200034
187	0xbeafc72a	-0.34331638
188	0x3ea6e4ad	0.3259634
189	0xbecc7681	-0.3993416
190	0x3eb4a224	0.35279953
191	0xbea4d7f0	-0.32195997
192	0xbe5f639f	-0.21815346
193	0x3e771535	0.24129184
194	0x3e7a3d0e	0.24437353
195	0xbe9e76d9	-0.3095005
196	0x3e32c82c	0.17459172
197	0x3e843c29	0.2582715
198	0xbe6a4b6a	-0.2288033
199	0x3e601e96	0.21886668
200	0xbef55a3d	-0.4792041
201	0x3e961a24	0.2931682
202	0xbe9dc5ab	-0.3081487
203	0xbdc47f99	-0.0959465
204	0x3e3aca62	0.18241265
205	0xbceacca6	-0.028662037
206	0xbe0c0756	-0.13674673
207	0xbd882a74	-0.06648722
208	0x3c28b9dd	0.0102982195
209	0x3e0da312	0.13831738
210	0xbe308cdd	-0.17241235
211	0x3ec6bd99	0.38816527
212	0x3dbb390e	0.09141742
213	0xbee75382	-0.451809
214	0xbdaf4166	-0.08557396
215	0xbe99650d	-0.29959908
216	0xbe7b297b	-0.24527542
217	0x3e7be83c	0.24600309
218	0x3e60efb0	0.21966434
219	0xbce57bc6	-0.028013121
220	0xbe94cd9f	-0.29063126
221	0x3e4a0373	0.19727878
222	0xbd8611fd	-0.065464
223	0xbd057f83	-0.032592308
224	0x3e5c6bfc	0.21525568
225	0x3e99443d	0.29934874
226	0xbecb4614	-0.39701903
227	0xbe1a4fa8	-0.15069449
228	0xbe81f9c0	-0.25385857
229	0xbe3a2667	-0.18178712
230	0x3f16ccb4	0.589061
231	0x3e405258	0.18781412
232	0xbdd5341f	-0.10410332
233	0x3ec3ef74	0.38268626
234	0xbe8241f3	-0.2544094
235	0x3dfea2a1	0.12433363
236	0xbe5050a0	-0.20343256
237	0x3e7c9cd9	0.24669208
238	0xbde369eb	-0.111041866
239	0x3e39d09f	0.18145989
240	0xbd986413	-0.07440963
241	0x3c9118fc	0.017712109
242	0xbd9e4e55	-0.077297844
243	0x3e73cf7d	0.23809619
244	0xbee44c6f	-0.44589564
245	0x3e5a2c74	0.2130602
246	0x3cffd2e0	0.031228483
247	0xbeb2ac1c	-0.34896934
248	0xbe4476b0	-0.191859
249	0x3e026fc7	0.12737952
250	0xbe88fc12	-0.26754814
251	0xbdd9eba1	-0.10640646
252	0x3ea00656	0.31254834
253	0xbe18ea4f	-0.14933132
254	0x3e84e2df	0.2595434
255	0x3e8c723b	0.274309

StatefulPartitionedCall/sequential_1/dense_2_1/BiasAdd/ReadVariableOp:0 f4 [10]
0	0x3ce67fa1	0.02813703
1	0xbd5b7172	-0.053574987
2	0xbdae870e	-0.085218534
3	0x3d577019	0.05259714
4	0xbd15a12e	-0.036530666
5	0xbdbc06d0	-0.09180987
6	0xbc887a67	-0.016659928
7	0xbd4e2210	-0.050325453
8	0x3d07f4c3	0.033192407
9	0x3ccc5c1c	0.024946265

StatefulPartitionedCall/sequential_1/dense_1_2/Cast/ReadVariableOp:0 f4 [64, 32]
0	0xbd7867f4	-0.060646012
1	0x3de84781	0.11341763
2	0xbd2241ee	-0.039613657
3	0xbe4b2b28	-0.19840682
4	0xbe19e64f	-0.15029262
5	0xbcc218ff	-0.02369356
6	0x3ec796da	0.38982278
7	0x3d7d426c	0.061830923
8	0x3dc0179f	0.09379505
9	0x3d771c9c	0.06033002
10	0xbe806d85	-0.25083557
11	0x3ea96154	0.33082068
12	0x3e24d390	0.1609633
13	0xbde818d4	-0.113328606
14	0xbdfe8e48	-0.12429482
15	0x3e2db6e6	0.16964301
16	0xbd86ed77	-0.065882616
17	0xbd6ce090	-0.057831347
18	0x3d085637	0.033285346
19	0xbcf50bb4	-0.029912807
20	0x3daa81c6	0.083255336
21	0x3d302d62	0.04301203
22	0x3d6e609d	0.058197606
23	0xbe8eff38	-0.2792909
24	0x3e20d0f3	0.15704708
25	0xbe2a244a	-0.16615406
26	0x3e1378da	0.1440157
27	0xbe51f783	-0.20504574
28	0xbbdb5754	-0.00669376
29	0x3e776ce8	0.24162638
30	0x3e01e34a	0.1268436
31	0x3d87a223	0.06622722
32	0x3c147f5b	0.009063567
33	0x3e176476	0.14784417
34	0x3cda52d6	0.026650827
35	0x3e0ea59d	0.13930364
36	0x3e1b7979	0.15183057
37	0x3e014a7c	0.1262607
38	0x3d64185d	0.055687297
39	0x3c44ffa8	0.012023844
40	0x3e21e955	0.15811665
41	0x3e07b3c5	0.1325217
42	0xbc8e0bd5	-0.017339626
43	0x3d42605c	0.047455177
44	0xbae63913	-0.0017564617
45	0x3e2fa38a	0.17152229
46	0xbbcbbd0a	-0.0062176036
47	0xbd0f8c9a	-0.035046197
48	0x3e4728fa	0.19449225
49	0x3d73f1f6	0.059556924
50	0x3db70505	0.08936504
51	0xbe752d4a	-0.23943058
52	0x3d30e1fb	0.04318426
53	0x3dfd592f	0.12370526
54	0x3ddd501a	0.10806294
55	0x3e7b4bab	0.24540584
56	0x3e144673	0.14479999
57	0x3e803bbb	0.2504557
58	0x3d5f1ab8	0.05446884
59	0x3e8337e2	0.25628573
60	0xbe64ea20	-0.22354937
61	0xbdd82cf9	-0.10555453
62	0x3e0dc797	0.13845669
63	0xbe5bbc38	-0.21458519
64	0xbda1980b	-0.07890328
65	0x3e9aa4bb	0.30203804
66	0x3e74d612	0.23909786
67	0xbd092944	-0.03348662
68	0x3e003f79	0.12524213
69	0x3dc8af07	0.09799009
70	0x3ca03e3f	0.019560931
71	0x3da31811	0.07963575
72	0xbe317a7d	-0.17331882
73	0xbe17a664	-0.14809567
74	0xbc1d8929	-0.009615221
75	0x3e9c55f9	0.30534342
76	0xbde54996	-0.11195676
77	0x3e6969bd	0.22794242
78	0xbdb04355	-0.086065926
79	0xbd6c356d	-0.05766814
80	0xbdc9ffd4	-0.098632485
81	0x3dd92e1c	0.10604498
82	0xbd044dae	-0.032300644
83	0xbdf8ed90	-0.121546865
84	0x3e5414f0	0.20711112
85	0x3db70edd	0.08938382
86	0x3d80c72a	0.062879875
87	0x3bc30653	0.0059516816
88	0x3e69e3cd	0.22840805
89	0xbdf738e1	-0.12071396
90	0x3e34dadb	0.17661612
91	0xbe0285f1	-0.12746407
92	0xbd6af686	-0.05736401
93	0xbd252fd9	-0.040328834
94	0x3e4b7f51	0.19872786
95	0xbe7bd844	-0.24594218
96	0x3df3855e	0.11890672
97	0xbd660f3f	-0.056166884
98	0xbe0b7541	-0.13618948
99	0x3e5c606e	0.2152116
100	0xbca549bd	-0.020176763
101	0x3e95197a	0.29121
102	0x3d60c513	0.054875445
103	0xbd7cd01a	-0.0617219
104	0x3d5a513e	0.053300135
105	0xbd8d63fd	-0.06903837
106	0x3e4c69d5	0.19962247
107	0xbe38c1bb	-0.18042652
108	0x3e780b97	0.24223171
109	0xbd53c7d0	-0.051704228
110	0x3db79a89	0.08965022
111	0xbbf91b18	-0.007602107
112	0x3d888439	0.066658445
113	0x3c422b0d	0.011851084
114	0xbe037025	-0.12835748
115	0x3d9934f3	0.074808024
116	0xbd80e0bc	-0.06292865
117	0x3e0024bf	0.12514018
118	0x3cabb16d	0.020958627
119	0x3dc945d4	0.09827772
120	0x3d70f6f9	0.05882928
121	0xbe83ba8b	-0.25728258
122	0xbea26ec9	-0.31725147
123	0xbd19fdd8	-0.0375956
124	0x3da32afe	0.079671845
125	0xbc726669	-0.014794924
126	0xbe3904d5	-0.1806825
127	0xbe7b0f94	-0.24517661
128	0x3e64371c	0.22286648
129	0xbd5e4549	-0.054265294
130	0xbd83aa97	-0.06429022
131	0xbd94085a	-0.072281554
132	0x3e25119a	0.16119996
133	0xbe1adcd8	-0.15123308
134	0xbc3c1061	-0.011478514
135	0xbd24811f	-0.040162202
136	0x3d357665	0.044302363
137	0x3e9fe917	0.3123252
138	0xbe2bcf6f	-0.16778348
139	0x3e096002	0.1341553
140	0x3c0dd7be	0.008657394
141	0xbda9d378	-0.082922876
142	0x3de35895	0.1110088
143	0x3e36cf3e	0.17852494
144	0xbda661f3	-0.08124151
145	0xbdf6971d	-0.12040541
146	0xbde9e107	-0.11419874
147	0xbda3346c	-0.07968983
148	0xbd285278	-0.041094273
149	0xbd6905b2	-0.056890197
150	0x3e4dddde	0.20104167
151	0x3e44e51a	0.1922802
152	0x3e2b895e	0.1675162
153	0x3e60430b	0.21900575
154	0x3db939c6	0.090442225
155	0xbd5b8cee	-0.053601198
156	0x3eceaba3	0.40365323
157	0x3e2ac83d	0.16677947
158	0x3d2c5891	0.04207665
159	0xbc9af039	-0.018913375
160	0xbe101e58	-0.14074075
161	0x3de8700c	0.11349496
162	0xbdac9f6e	-0.08428846
163	0xbdce257b	-0.100657426
164	0x3dc682ff	0.09692954
165	0x3e88300e	0.26599163
166	0x3dab8b80	0.08376217
167	0xbdd4e948	-0.10396057
168	0x3d25c193	0.04046781
169	0xbcafd3f4	-0.021463372
170	0xbe711c23	-0.2354589
171	0xbd42062b	-0.047369163
172	0xbe018ce2	-0.12651399
173	0x3ddcdb0b	0.10783967
174	0xbc0a223b	-0.008431013
175	0xbc5079d0	-0.012724355
176	0x3e413ac8	0.1887008
177	0xbc8cd3a1	-0.017190756
178	0x3d6d9bf9	0.058010075
179	0x3da0d8b0	0.0785383
180	0x3e9ff160	0.31238842
181	0x3d6e7c4b	0.058224004
182	0x3db1048e	0.08643447
183	0x3c75bd41	0.014998735
184	0x3e8b1f65	0.2717239
185	0xbe1418ea	-0.14462629
186	0x3da90788	0.082533896
187	0x3e0f70a7	0.14007817
188	0x3ea27bab	0.31734976
189	0x3e776cdb	0.24162619
190	0x3e1e0751	0.15432478
191	0x3df4378f	0.119246595
192	0xbe3c848e	-0.1840994
193	0x3e0dd1b7	0.13849531
194	0xbd863984	-0.06553939
195	0x3db2a1b7	0.08722251
196	0xbda394fc	-0.07987401
197	0x3e888abc	0.26668346
198	0x3d6e4fd9	0.058181617
199	0x3dfe8268	0.12427217
200	0x3eaa56e3	0.33269414
201	0x3d8ea4ad	0.06965003
202	0x3e31ae21	0.17351581
203	0xbdc1a92a	-0.094560936
204	0x3dd2b8ca	0.10289152
205	0x3d598618	0.053106397
206	0x3e8655a7	0.26237223
207	0x3e4f5f22	0.20251134
208	0x3e90d045	0.28283897
209	0x3dff29c5	0.12459139
210	0x3d958a14	0.07301727
211	0x3e119456	0.14216742
212	0x3e1e6737	0.15469061
213	0x3e1c387c	0.15255922
214	0x3dc02b04	0.093832046
215	0x3e0490d2	0.1294587
216	0x3e31ea6a	0.17374578
217	0x3edadaed	0.42745152
218	0x3e0ebb91	0.13938738
219	0x3e06fb32	0.13181761
220	0x3df2a853	0.118485115
221	0x3e89b48f	0.26895568
222	0x3e8c59b0	0.27412176
223	0x3e45ad97	0.193045
224	0x3ec6f0bc	0.3885554
225	0xbcae8da8	-0.021307781
226	0x3e511000	0.2041626
227	0xbc8ce33c	-0.017198198
228	0x3d978dfa	0.07400127
229	0x3e0ed241	0.13947393
230	0xbe02b584	-0.12764555
231	0x3e73040f	0.23732017
232	0x3e0b0abf	0.13578318
233	0xbd507b88	-0.05089906
234	0xbe15a8a5	-0.14615114
235	0x3e69724f	0.22797512
236	0xbe346d3a	-0.17619792
237	0x3d1e6d16	0.03867825
238	0x3e2a62ab	0.16639201
239	0x3e17eefa	0.14837256
240	0x3dc7e4ec	0.0976046
241	0x3e9d860b	0.3076633
242	0x3e83cff9	0.25744608
243	0xbdbfdfa8	-0.09368831
244	0x3d20c3cd	0.03924923
245	0x3e85a01f	0.26098725
246	0x3cb748f3	0.022373652
247	0xbdf60d37	-0.12014239
248	0x3e4b0b6c	0.19828576
249	0x3d8fa4a5	0.07013825
250	0x3ce16376	0.027513247
251	0x3e0fd7fb	0.14047234
252	0xbe107645	-0.14107616
253	0xbd188b90	-0.037242472
254	0xbd8f7b45	-0.07005934
255	0x3cff8f10	0.031196147

StatefulPartitionedCall/sequential_1/dense_1_2/BiasAdd/ReadVariableOp:0 f4 [32]
0	0x3e0c6dc6	0.1371375
1	0x3d81c468	0.0633629
2	0x3db808f6	0.08986084
3	0x3ded1c24	0.11577633
4	0x3e0211fb	0.12702172
5	0x3ca12ca9	0.019674616
6	0x3e18f438	0.14936912
7	0x3d742a60	0.059610724
8	0x3da42a98	0.080159366
9	0x3d1f77a9	0.038932476
10	0xbd0c1163	-0.03419627
11	0x3e127183	0.14301114
12	0xbd2f5d03	-0.042813312
13	0x3e4de2e9	0.2010609
14	0xbb1b1bf7	-0.0023667791
15	0x3df27d48	0.11840302
16	0x3d8f2236	0.06988947
17	0x3ddb9cd8	0.10723275
18	0x3d9cd968	0.076586545
19	0xbda079a1	-0.07835699
20	0x3d998ec4	0.074979335
21	0x3e26c121	0.1628461
22	0x3dd298ab	0.10283025
23	0x3de8e0e7	0.11371022
24	0x3dee10a9	0.116242714
25	0x3e059133	0.1304367
26	0x3dd5b1fd	0.10434339
27	0x3e15a594	0.14613944
28	0x3ddd95ba	0.10819574
29	0x3e063c6e	0.1310899
30	0x3de7c983	0.11317732
31	0xbdb171b7	-0.086642675

StatefulPartitionedCall/sequential_1/dense_1/Cast/ReadVariableOp:0 f4 [12, 64]
0	0xbe61a347	-0.22034942
1	0x3d9d361e	0.07676338
2	0xbd32f8b8	-0.043694228
3	0xbc618960	-0.013765663
4	0xbcc6747d	-0.024225468
5	0xbe69fd87	-0.2285062
6	0xbe9dbd32	-0.30808407
7	0x3d856d5c	0.06514999
8	0x3e700d0c	0.23442477
9	0x3e467bf7	0.19383226
10	0x3eba9e6c	0.3644899
11	0x3e812761	0.25225356
12	0xbe30272b	-0.17202441
13	0x3e9ebdbe	0.31004137
14	0xbead705e	-0.33874792
15	0xbe25037e	-0.16114613
16	0xbea973f0	-0.33096266
17	0xbd3d0093	-0.046143126
18	0xbe2bfad0	-0.16794896
19	0xbc0d662c	-0.008630317
20	0xbe0b8581	-0.13625146
21	0x3ebc7dfd	0.3681487
22	0xbe81e21e	-0.25367826
23	0xbd960199	-0.073245235
24	0xbd8736c2	-0.06602241
25	0x3d91b043	0.071136974
26	0xbe05c969	-0.13065113
27	0xbdc29d26	-0.0950263
28	0x3dc226cc	0.09480056
29	0x3dd52638	0.1040768
30	0x3d22a974	0.039712384
31	0x3d8dcc61	0.06923748
32	0xbebf5918	-0.3737266
33	0x3df220e8	0.118226826
34	0x3e183738	0.14864814
35	0xbec853d3	-0.39126453
36	0x3e280688	0.16408741
37	0x3e22ade5	0.15886648
38	0xbdfbb7e4	-0.12290934
39	0x3e936171	0.2878528
40	0x3e9dfd4c	0.30857313
41	0xbea20ebd	-0.3165187
42	0x3e1910ab	0.14947765
43	0x3d205817	0.03914651
44	0x3d57a784	0.05264999
45	0xbe869c04	-0.26290905
46	0xbe9aaa2c	-0.30207956
47	0x3e8403d2	0.25784165
48	0x3e17b8ad	0.14816542
49	0x3c83f55d	0.01610821
50	0xbe058e64	-0.13042599
51	0x3e86c417	0.2632148
52	0xbdfcba53	-0.12340226
53	0xbe853e9c	-0.2602433
54	0x3d51144f	0.05104476
55	0x3e5a866c	0.2134034
56	0xbe3feb5f	-0.1874213
57	0x3eb6b20b	0.3568271
58	0x3ea1b9bd	0.3158702
59	0xbdf818da	-0.12114115
60	0x3e38d9f1	0.18051888
61	0x3c0a39cf	0.008436634
62	0xbe70e116	-0.23523363
63	0xbe4a21c5	-0.19739445
64	0xbe06b60f	-0.13155387
65	0x3e842119	0.25806502
66	0x3e17a64e	0.14809534
67	0x3dec0d4a	0.11525972
68	0xbebec94e	-0.37262958
69	0xbd7462a1	-0.059664372
70	0xbdc0f07f	-0.09420871
71	0x3e53689d	0.20645376
72	0xbdf8204f	-0.121155374
73	0x3e058c66	0.13041839
74	0xbe536362	-0.2064338
75	0xbd935897	-0.071946315
76	0x3de33399	0.11093826
77	0xbb7bb52b	-0.0038407545
78	0x3db2e4cf	0.08735048
79	0x3ebd76e2	0.37004763
80	0xbe2cd845	-0.16879375
81	0x3db05a1f	0.08610939
82	0xbeb1dffe	-0.34741205
83	0x3e8aebfb	0.27133164
84	0xbe8810b8	-0.26575255
85	0xbe8df9fc	-0.27729785
86	0x3e2edebc	0.17077154
87	0xbe8d1c80	-0.27560806
88	0x3dfc9a61	0.12334133
89	0xbe41b21b	-0.18915598
90	0x3d0a5d49	0.03378037
91	0x3eabb80f	0.33538863
92	0xbe0a5fab	-0.13513057
93	0x3eb0cb39	0.34530047
94	0xbe351ff1	-0.17687966
95	0xbebe7585	-0.37199035
96	0xbd1313f6	-0.035907708
97	0xbe11eea3	-0.14251189
98	0x3e9ab05a	0.3021267
99	0x3cdaf809	0.0267296
100	0xbea2c3e8	-0.3179009
101	0xbe0751bd	-0.13214774
102	0xbe402e30	-0.18767619
103	0x3e8014aa	0.25015765
104	0x3e9e7a25	0.30952564
105	0x3ec65f1f	0.38744447
106	0x3ea8d860	0.3297758
107	0x3e8a41c6	0.27003306
108	0xbdb30d5c	-0.087427825
109	0xbd3b091d	-0.045662988
110	0xbc888701	-0.016665937
111	0xbc609f25	-0.013709818
112	0xbdb4f8c9	-0.088365145
113	0x3d9f8119	0.07788295
114	0x3e08941d	0.1333775
115	0x3e80235e	0.25026983
116	0xbea05cb0	-0.31320715
117	0xbbb9663c	-0.0056579392
118	0xbe1f12bc	-0.1553449
119	0xbe968269	-0.2939637
120	0xbdde816b	-0.10864528
121	0x3d82bc7d	0.063836075
122	0xbdde6680	-0.10859394
123	0xbc7baac0	-0.015360534
124	0xbe58e0a4	-0.21179444
125	0x3dde959a	0.10868378
126	0xbe2af4f0	-0.16694999
127	0xbe1937e9	-0.14962734
128	0x3d7fa9b6	0.06241771
129	0x3e5111d4	0.20416957
130	0xbe40679b	-0.18789522
131	0xbe7b7f2e	-0.24560234
132	0x3d3bb475	0.045826394
133	0xbe9cd6ef	-0.3063273
134	0x3e136bed	0.14396639
135	0x3e945b7c	0.28976047
136	0x3da68e79	0.08132643
137	0x3dad7c88	0.08471018
138	0xbe39d5cb	-0.18147962
139	0x3e44f344	0.19233423
140	0x3cdf451c	0.027254634
141	0x3a1c1e0c	0.0005955405
142	0xbe28ea3a	-0.164956
143	0x3e8debdc	0.2771901
144	0x3b18f107	0.0023337023
145	0xbe07bd29	-0.13255753
146	0xbd843747	-0.06455856
147	0x3e62bcc8	0.22142327
148	0x3cb1c70a	0.021701355
149	0xbe98ff1b	-0.2988213
150	0x3c8b1e34	0.016982175
151	0x3e7aac1e	0.2447972
152	0xbebbc0c1	-0.36670497
153	0xbe428282	-0.18995097
154	0x3efffb2f	0.49996325
155	0xbd136b03	-0.035990726
156	0xbde5ce54	-0.112209946
157	0x3e3b9acb	0.18320768
158	0x3e82c3cc	0.25540006
159	0x3e8300f6	0.2558667
160	0x3d5bb79b	0.053641897
161	0x3db7ace0	0.0896852
162	0xbedc8d2b	-0.43076453
163	0x3de63002	0.112396255
164	0x3e581291	0.21100833
165	0x3dc4f517	0.0961706
166	0xbe1f4054	-0.15551883
167	0xbe76e0c8	-0.24109185
168	0x3d05dbc7	0.0326803
169	0xbe096978	-0.1341914
170	0xbca5b8f5	-0.020229796
171	0xbe3fca39	-0.18729486
172	0x3e1d262a	0.1534659
173	0xbe353ea8	-0.17699683
174	0xbd0ec559	-0.034856174
175	0xbd2b96f7	-0.04189202
176	0xbecc5ee5	-0.3991615
177	0x3ea5203e	0.3225116
178	0xbd491a7f	-0.049097534
179	0x3e1c9e36	0.15294728
180	0xbeb49557	-0.35270187
181	0xbe24fc67	-0.16111909
182	0xbe6f4bde	-0.23368785
183	0xbe684866	-0.22683868
184	0x3db15c9e	0.086602435
185	0x3dc1c08f	0.09460556
186	0xbd04b484	-0.032398716
187	0xbda804e0	-0.08204055
188	0x3e6c1552	0.23055008
189	0x3e807080	0.2508583
190	0x3e90608f	0.28198668
191	0xbe9013e6	-0.2814018
192	0xbe753b2f	-0.23948358
193	0x3e1e1bfa	0.1544036
194	0xbc988e33	-0.018622493
195	0x3e4af582	0.19820216
196	0xbdcb0d3f	-0.09914636
197	0x3dcc76a5	0.09983567
198	0xbd486693	-0.048925947
199	0xbd85833a	-0.0651917
200	0x3d3dc1b2	0.0463273
201	0xbe1ba133	-0.15198211
202	0x3ecd52b3	0.40102157
203	0xbdaee22b	-0.08539232
204	0xbcd13249	-0.025536673
205	0xbe670275	-0.22559531
206	0x3c8cb4c4	0.01717604
207	0xbd862f89	-0.06552035
208	0xbed69646	-0.41911525
209	0xbddd90c8	-0.108186305
210	0x3e86941e	0.2628488
211	0xbeb4ccc2	-0.35312468
212	0x3e804d82	0.25059134
213	0x3d836867	0.064163975
214	0xbdb91461	-0.0903709
215	0x3e85c153	0.26124057
216	0x3e05ea04	0.13077551
217	0x3ec693cf	0.38784644
218	0x3e4b2441	0.19838049
219	0x3ed605bd	0.41801253
220	0xbeb43238	-0.35194564
221	0x3cd31bcb	0.025770089
222	0x3cf46f2a	0.029838163
223	0x3d85f807	0.06541448
224	0x3e3b24fc	0.18275827
225	0x3dab8276	0.08374493
226	0xbd49fc54	-0.049312904
227	0x3d21803e	0.039428942
228	0xbdc05be3	-0.09392526
229	0x3e0283a5	0.12745531
230	0x3daaa41a	0.08332081
231	0xbeab542a	-0.3346265
232	0x3e6f52ba	0.23371401
233	0xbe3e768e	-0.18599913
234	0x3d91f2ef	0.07126414
235	0x3d806ffc	0.06271359
236	0x3d963c66	0.07335739
237	0xbe23af0b	-0.15984742
238	0x3e6b73fa	0.2299346
239	0x3e23e597	0.1600555
240	0xbe391b33	-0.18076782
241	0xb8228241	-3.874512e-05
242	0x3d15c423	0.036564004
243	0xbe31850a	-0.17335907
244	0xbe1e99ec	-0.15488404
245	0xbde41a98	-0.11137885
246	0x3d4a5a2c	0.0494024
247	0xbed1c95f	-0.40973946
248	0xbe6b7457	-0.22993599
249	0x3ec86454	0.39139044
250	0x3c1290a5	0.008945619
251	0x3e97c5c7	0.2964308
252	0xbe2e247a	-0.17006102
253	0x3db4782a	0.08811982
254	0xbea5522c	-0.32289255
255	0x3e1d7519	0.153767

StatefulPartitionedCall/sequential_1/dense_1/BiasAdd/ReadVariableOp:0 f4 [64]
0	0x3d134453	0.03595383
1	0x3dad62ec	0.084661335
2	0x3defcbcf	0.11708795
3	0xbc31b4b2	-0.010846304
4	0x3d562935	0.05228539
5	0x3dece69e	0.11567424
6	0x3d9d9346	0.07694106
7	0x3da42f9f	0.080168955
8	0x3cd2644e	0.025682595
9	0xbb556a0a	-0.0032564425
10	0x3dfe4bfa	0.12416835
11	0x3d84454b	0.06458529
12	0x3cc012a2	0.023446385
13	0x3d0f460c	0.03497891
14	0x3d9fce12	0.07802977
15	0x3e223c24	0.15843254
16	0x3d785e17	0.060636606
17	0x3dbbc89c	0.091691226
18	0x3d2df7bf	0.042472597
19	0x3e0ca909	0.13736357
20	0x3e15ef3e	0.14642045
21	0x3e0f7b96	0.14011988
22	0x3e14e355	0.14539845
23	0x3e1327fd	0.14370723
24	0x3b796335	0.0038053517
25	0x3de956bb	0.11393496
26	0x3d9b3489	0.0757838
27	0x3d106b53	0.035258602
28	0x3deb33fb	0.11484524
29	0x3d93f440	0.07224321
30	0x3db107f5	0.08644096
31	0x3da6c730	0.08143461
32	0x3d2554be	0.04036402
33	0x3dda7d86	0.10668473
34	0x3e05dd90	0.130728
35	0x3d6cb78f	0.057792243
36	0x3d729bb5	0.059230525
37	0x3c7fd908	0.015615709
38	0x3d77eeb2	0.060530372
39	0x3dea4757	0.11439388
40	0x3d92f77e	0.07176112
41	0x3dcb7985	0.099352874
42	0x3db73ca8	0.08947116
43	0x3de50c46	0.111839816
44	0x3dcea719	0.10090465
45	0x3e04c608	0.12966168
46	0x3e4c7412	0.19966152
47	0x3d56aced	0.05241101
48	0x3dff66fd	0.12470815
49	0x3dab22dc	0.08356258
50	0x3dde8799	0.10865707
51	0x3de8094d	0.11329899
52	0x3dd5d2bc	0.10440585
53	0x3ddeb4a2	0.10874297
54	0x3d652e30	0.05595225
55	0x3def777b	0.11692711
56	0x3db2d45e	0.08731912
57	0x3d0771e6	0.033067606
58	0x3da71751	0.08158744
59	0x3d45f300	0.048327446
60	0x3e0d821f	0.13819169
61	0x3e10fd60	0.14159155
62	0x3e001f82	0.1251202
63	0xba16b6e9	-0.00057493016
